…
    F_use_input_norm: True
    F_use_range_norm: False
    G_scheduler_restart_weights: 1
  ]
  val:[
    save_img: False
    pad_seq: False
    flip_seq: False
    center_frame_only: False
    num_frame_testing: 40
    num_frame_overlapping: 2
    size_patch_testing: 128
  ]
  opt_path: options/vrt/001_train_vrt_videosr_bi_reds_6frames.json
  is_train: True
  merge_bn: False
  merge_bn_startpoint: -1
  num_gpu: 8
  rank: 0
  world_size: 1

22-03-11 09:54:50.223 : Number of train images: 27,000, iters: 3,375
22-03-11 09:54:57.597 : 
Networks name: VRT
Params number: 30676435
Net structure:
VRT(
  (conv_first): Conv3d(27, 120, kernel_size=(1, 3, 3), stride=(1, 1, 1), padding=(0, 1, 1))
  (spynet): SpyNet(
    (basic_module): ModuleList(
      (0): BasicModule(
        (basic_module): Sequential(
          (0): Conv2d(8, 32, kernel_size=(7, 7), stride=(1, 1), padding=(3, 3))
          (1): ReLU()
          (2): Conv2d(32, 64, kernel_size=(7, 7), stride=(1, 1), padding=(3, 3))
          (3): ReLU()
          (4): Conv2d(64, 32, kernel_size=(7, 7), stride=(1, 1), padding=(3, 3))
          (5): ReLU()
          (6): Conv2d(32, 16, kernel_size=(7, 7), stride=(1, 1), padding=(3, 3))
          (7): ReLU()
          (8): Conv2d(16, 2, kernel_size=(7, 7), stride=(1, 1), padding=(3, 3))
        )
      )
      (1): BasicModule(
        (basic_module): Sequential(
          (0): Conv2d(8, 32, kernel_size=(7, 7), stride=(1, 1), padding=(3, 3))
          (1): ReLU()
          (2): Conv2d(32, 64, kernel_size=(7, 7), stride=(1, 1), padding=(3, 3))
          (3): ReLU()
          (4): Conv2d(64, 32, kernel_size=(7, 7), stride=(1, 1), padding=(3, 3))
          (5): ReLU()
          (6): Conv2d(32, 16, kernel_size=(7, 7), stride=(1, 1), padding=(3, 3))
          (7): ReLU()
          (8): Conv2d(16, 2, kernel_size=(7, 7), stride=(1, 1), padding=(3, 3))
        )
      )
      (2): BasicModule(
        (basic_module): Sequential(
          (0): Conv2d(8, 32, kernel_size=(7, 7), stride=(1, 1), padding=(3, 3))
          (1): ReLU()
          (2): Conv2d(32, 64, kernel_size=(7, 7), stride=(1, 1), padding=(3, 3))
          (3): ReLU()
          (4): Conv2d(64, 32, kernel_size=(7, 7), stride=(1, 1), padding=(3, 3))
          (5): ReLU()
          (6): Conv2d(32, 16, kernel_size=(7, 7), stride=(1, 1), padding=(3, 3))
          (7): ReLU()
          (8): Conv2d(16, 2, kernel_size=(7, 7), stride=(1, 1), padding=(3, 3))
        )
      )
      (3): BasicModule(
        (basic_module): Sequential(
          (0): Conv2d(8, 32, kernel_size=(7, 7), stride=(1, 1), padding=(3, 3))
          (1): ReLU()
          (2): Conv2d(32, 64, kernel_size=(7, 7), stride=(1, 1), padding=(3, 3))
          (3): ReLU()
          (4): Conv2d(64, 32, kernel_size=(7, 7), stride=(1, 1), padding=(3, 3))
          (5): ReLU()
          (6): Conv2d(32, 16, kernel_size=(7, 7), stride=(1, 1), padding=(3, 3))
          (7): ReLU()
          (8): Conv2d(16, 2, kernel_size=(7, 7), stride=(1, 1), padding=(3, 3))
        )
      )
      (4): BasicModule(
        (basic_module): Sequential(
          (0): Conv2d(8, 32, kernel_size=(7, 7), stride=(1, 1), padding=(3, 3))
          (1): ReLU()
          (2): Conv2d(32, 64, kernel_size=(7, 7), stride=(1, 1), padding=(3, 3))
          (3): ReLU()
          (4): Conv2d(64, 32, kernel_size=(7, 7), stride=(1, 1), padding=(3, 3))
          (5): ReLU()
          (6): Conv2d(32, 16, kernel_size=(7, 7), stride=(1, 1), padding=(3, 3))
          (7): ReLU()
          (8): Conv2d(16, 2, kernel_size=(7, 7), stride=(1, 1), padding=(3, 3))
        )
      )
      (5): BasicModule(
        (basic_module): Sequential(
          (0): Conv2d(8, 32, kernel_size=(7, 7), stride=(1, 1), padding=(3, 3))
          (1): ReLU()
          (2): Conv2d(32, 64, kernel_size=(7, 7), stride=(1, 1), padding=(3, 3))
          (3): ReLU()
          (4): Conv2d(64, 32, kernel_size=(7, 7), stride=(1, 1), padding=(3, 3))
          (5): ReLU()
          (6): Conv2d(32, 16, kernel_size=(7, 7), stride=(1, 1), padding=(3, 3))
          (7): ReLU()
          (8): Conv2d(16, 2, kernel_size=(7, 7), stride=(1, 1), padding=(3, 3))
        )
      )
    )
  )
  (stage1): Stage(
    (reshape): Sequential(
      (0): Rearrange('n c d h w -> n d h w c')
      (1): LayerNorm((120,), eps=1e-05, elementwise_affine=True)
      (2): Rearrange('n d h w c -> n c d h w')
    )
    (residual_group1): TMSAG(
      (blocks): ModuleList(
        (0): TMSA(
          (norm1): LayerNorm((120,), eps=1e-05, elementwise_affine=True)
          (attn): WindowAttention(
            (qkv_self): Linear(in_features=120, out_features=360, bias=True)
            (proj): Linear(in_features=240, out_features=120, bias=True)
            (qkv_mut): Linear(in_features=120, out_features=360, bias=True)
            (softmax): Softmax(dim=-1)
          )
          (drop_path): Identity()
          (norm2): LayerNorm((120,), eps=1e-05, elementwise_affine=True)
          (mlp): Mlp_GEGLU(
            (fc11): Linear(in_features=120, out_features=240, bias=True)
            (fc12): Linear(in_features=120, out_features=240, bias=True)
            (act): GELU()
            (fc2): Linear(in_features=240, out_features=120, bias=True)
            (drop): Dropout(p=0.0, inplace=False)
          )
        )
        (1): TMSA(
          (norm1): LayerNorm((120,), eps=1e-05, elementwise_affine=True)
          (attn): WindowAttention(
            (qkv_self): Linear(in_features=120, out_features=360, bias=True)
            (proj): Linear(in_features=240, out_features=120, bias=True)
            (qkv_mut): Linear(in_features=120, out_features=360, bias=True)
            (softmax): Softmax(dim=-1)
          )
          (drop_path): DropPath()
          (norm2): LayerNorm((120,), eps=1e-05, elementwise_affine=True)
          (mlp): Mlp_GEGLU(
            (fc11): Linear(in_features=120, out_features=240, bias=True)
            (fc12): Linear(in_features=120, out_features=240, bias=True)
            (act): GELU()
            (fc2): Linear(in_features=240, out_features=120, bias=True)
            (drop): Dropout(p=0.0, inplace=False)
          )
        )
        (2): TMSA(
          (norm1): LayerNorm((120,), eps=1e-05, elementwise_affine=True)
          (attn): WindowAttention(
            (qkv_self): Linear(in_features=120, out_features=360, bias=True)
            (proj): Linear(in_features=240, out_features=120, bias=True)
            (qkv_mut): Linear(in_features=120, out_features=360, bias=True)
            (softmax): Softmax(dim=-1)
          )
          (drop_path): DropPath()
          (norm2): LayerNorm((120,), eps=1e-05, elementwise_affine=True)
          (mlp): Mlp_GEGLU(
            (fc11): Linear(in_features=120, out_features=240, bias=True)
            (fc12): Linear(in_features=120, out_features=240, bias=True)
            (act): GELU()
            (fc2): Linear(in_features=240, out_features=120, bias=True)
            (drop): Dropout(p=0.0, inplace=False)
          )
        )
        (3): TMSA(
          (norm1): LayerNorm((120,), eps=1e-05, elementwise_affine=True)
          (attn): WindowAttention(
            (qkv_self): Linear(in_features=120, out_features=360, bias=True)
            (proj): Linear(in_features=240, out_features=120, bias=True)
            (qkv_mut): Linear(in_features=120, out_features=360, bias=True)
            (softmax): Softmax(dim=-1)
          )
          (drop_path): DropPath()
          (norm2): LayerNorm((120,), eps=1e-05, elementwise_affine=True)
          (mlp): Mlp_GEGLU(
            (fc11): Linear(in_features=120, out_features=240, bias=True)
            (fc12): Linear(in_features=120, out_features=240, bias=True)
            (act): GELU()
            (fc2): Linear(in_features=240, out_features=120, bias=True)
            (drop): Dropout(p=0.0, inplace=False)
          )
        )
        (4): TMSA(
          (norm1): LayerNorm((120,), eps=1e-05, elementwise_affine=True)
          (attn): WindowAttention(
            (qkv_self): Linear(in_features=120, out_features=360, bias=True)
            (proj): Linear(in_features=240, out_features=120, bias=True)
            (qkv_mut): Linear(in_features=120, out_features=360, bias=True)
            (softmax): Softmax(dim=-1)
          )
          (drop_path): DropPath()
          (norm2): LayerNorm((120,), eps=1e-05, elementwise_affine=True)
          (mlp): Mlp_GEGLU(
            (fc11): Linear(in_features=120, out_features=240, bias=True)
            (fc12): Linear(in_features=120, out_features=240, bias=True)
            (act): GELU()
            (fc2): Linear(in_features=240, out_features=120, bias=True)
            (drop): Dropout(p=0.0, inplace=False)
          )
        )
        (5): TMSA(
          (norm1): LayerNorm((120,), eps=1e-05, elementwise_affine=True)
          (attn): WindowAttention(
            (qkv_self): Linear(in_features=120, out_features=360, bias=True)
            (proj): Linear(in_features=240, out_features=120, bias=True)
            (qkv_mut): Linear(in_features=120, out_features=360, bias=True)
            (softmax): Softmax(dim=-1)
          )
          (drop_path): DropPath()
          (norm2): LayerNorm((120,), eps=1e-05, elementwise_affine=True)
          (mlp): Mlp_GEGLU(
            (fc11): Linear(in_features=120, out_features=240, bias=True)
            (fc12): Linear(in_features=120, out_features=240, bias=True)
            (act): GELU()
            (fc2): Linear(in_features=240, out_features=120, bias=True)
            (drop): Dropout(p=0.0, inplace=False)
          )
        )
      )
    )
    (linear1): Linear(in_features=120, out_features=120, bias=True)
    (residual_group2): TMSAG(
      (blocks): ModuleList(
        (0): TMSA(
          (norm1): LayerNorm((120,), eps=1e-05, elementwise_affine=True)
          (attn): WindowAttention(
            (qkv_self): Linear(in_features=120, out_features=360, bias=True)
            (proj): Linear(in_features=120, out_features=120, bias=True)
            (softmax): Softmax(dim=-1)
          )
          (drop_path): Identity()
          (norm2): LayerNorm((120,), eps=1e-05, elementwise_affine=True)
          (mlp): Mlp_GEGLU(
            (fc11): Linear(in_features=120, out_features=240, bias=True)
            (fc12): Linear(in_features=120, out_features=240, bias=True)
            (act): GELU()
            (fc2): Linear(in_features=240, out_features=120, bias=True)
            (drop): Dropout(p=0.0, inplace=False)
          )
        )
        (1): TMSA(
          (norm1): LayerNorm((120,), eps=1e-05, elementwise_affine=True)
          (attn): WindowAttention(
            (qkv_self): Linear(in_features=120, out_features=360, bias=True)
            (proj): Linear(in_features=120, out_features=120, bias=True)
            (softmax): Softmax(dim=-1)
          )
          (drop_path): DropPath()
          (norm2): LayerNorm((120,), eps=1e-05, elementwise_affine=True)
          (mlp): Mlp_GEGLU(
            (fc11): Linear(in_features=120, out_features=240, bias=True)
            (fc12): Linear(in_features=120, out_features=240, bias=True)
            (act): GELU()
            (fc2): Linear(in_features=240, out_features=120, bias=True)
            (drop): Dropout(p=0.0, inplace=False)
          )
        )
      )
    )
    (linear2): Linear(in_features=120, out_features=120, bias=True)
    (pa_deform): DCNv2PackFlowGuided(
      (conv_offset): Sequential(
        (0): Conv2d(242, 120, kernel_size=(3, 3), stride=(1, 1), padding=(1, 1))
        (1): LeakyReLU(negative_slope=0.1, inplace=True)
        (2): Conv2d(120, 120, kernel_size=(3, 3), stride=(1, 1), padding=(1, 1))
        (3): LeakyReLU(negative_slope=0.1, inplace=True)
        (4): Conv2d(120, 120, kernel_size=(3, 3), stride=(1, 1), padding=(1, 1))
        (5): LeakyReLU(negative_slope=0.1, inplace=True)
        (6): Conv2d(120, 324, kernel_size=(3, 3), stride=(1, 1), padding=(1, 1))
      )
    )
    (pa_fuse): Mlp_GEGLU(
      (fc11): Linear(in_features=360, out_features=360, bias=True)
      (fc12): Linear(in_features=360, out_features=360, bias=True)
      (act): GELU()
      (fc2): Linear(in_features=360, out_features=120, bias=True)
      (drop): Dropout(p=0.0, inplace=False)
    )
  )
  (stage2): Stage(
    (reshape): Sequential(
      (0): Rearrange('n c d (h neih) (w neiw) -> n d h w (neiw neih c)', neih=2, neiw=2)
      (1): LayerNorm((480,), eps=1e-05, elementwise_affine=True)
      (2): Linear(in_features=480, out_features=120, bias=True)
      (3): Rearrange('n d h w c -> n c d h w')
    )
    (residual_group1): TMSAG(
      (blocks): ModuleList(
        (0): TMSA(
          (norm1): LayerNorm((120,), eps=1e-05, elementwise_affine=True)
          (attn): WindowAttention(
            (qkv_self): Linear(in_features=120, out_features=360, bias=True)
            (proj): Linear(in_features=240, out_features=120, bias=True)
            (qkv_mut): Linear(in_features=120, out_features=360, bias=True)
            (softmax): Softmax(dim=-1)
          )
          (drop_path): DropPath()
          (norm2): LayerNorm((120,), eps=1e-05, elementwise_affine=True)
          (mlp): Mlp_GEGLU(
            (fc11): Linear(in_features=120, out_features=240, bias=True)
            (fc12): Linear(in_features=120, out_features=240, bias=True)
            (act): GELU()
            (fc2): Linear(in_features=240, out_features=120, bias=True)
            (drop): Dropout(p=0.0, inplace=False)
          )
        )
        (1): TMSA(
          (norm1): LayerNorm((120,), eps=1e-05, elementwise_affine=True)
          (attn): WindowAttention(
            (qkv_self): Linear(in_features=120, out_features=360, bias=True)
            (proj): Linear(in_features=240, out_features=120, bias=True)
            (qkv_mut): Linear(in_features=120, out_features=360, bias=True)
            (softmax): Softmax(dim=-1)
          )
          (drop_path): DropPath()
          (norm2): LayerNorm((120,), eps=1e-05, elementwise_affine=True)
          (mlp): Mlp_GEGLU(
            (fc11): Linear(in_features=120, out_features=240, bias=True)
            (fc12): Linear(in_features=120, out_features=240, bias=True)
            (act): GELU()
            (fc2): Linear(in_features=240, out_features=120, bias=True)
            (drop): Dropout(p=0.0, inplace=False)
          )
        )
        (2): TMSA(
          (norm1): LayerNorm((120,), eps=1e-05, elementwise_affine=True)
          (attn): WindowAttention(
            (qkv_self): Linear(in_features=120, out_features=360, bias=True)
            (proj): Linear(in_features=240, out_features=120, bias=True)
            (qkv_mut): Linear(in_features=120, out_features=360, bias=True)
            (softmax): Softmax(dim=-1)
          )
          (drop_path): DropPath()
          (norm2): LayerNorm((120,), eps=1e-05, elementwise_affine=True)
          (mlp): Mlp_GEGLU(
            (fc11): Linear(in_features=120, out_features=240, bias=True)
            (fc12): Linear(in_features=120, out_features=240, bias=True)
            (act): GELU()
            (fc2): Linear(in_features=240, out_features=120, bias=True)
            (drop): Dropout(p=0.0, inplace=False)
          )
        )
        (3): TMSA(
          (norm1): LayerNorm((120,), eps=1e-05, elementwise_affine=True)
          (attn): WindowAttention(
            (qkv_self): Linear(in_features=120, out_features=360, bias=True)
            (proj): Linear(in_features=240, out_features=120, bias=True)
            (qkv_mut): Linear(in_features=120, out_features=360, bias=True)
            (softmax): Softmax(dim=-1)
          )
          (drop_path): DropPath()
          (norm2): LayerNorm((120,), eps=1e-05, elementwise_affine=True)
          (mlp): Mlp_GEGLU(
            (fc11): Linear(in_features=120, out_features=240, bias=True)
            (fc12): Linear(in_features=120, out_features=240, bias=True)
            (act): GELU()
            (fc2): Linear(in_features=240, out_features=120, bias=True)
            (drop): Dropout(p=0.0, inplace=False)
          )
        )
        (4): TMSA(
          (norm1): LayerNorm((120,), eps=1e-05, elementwise_affine=True)
          (attn): WindowAttention(
            (qkv_self): Linear(in_features=120, out_features=360, bias=True)
            (proj): Linear(in_features=240, out_features=120, bias=True)
            (qkv_mut): Linear(in_features=120, out_features=360, bias=True)
            (softmax): Softmax(dim=-1)
          )
          (drop_path): DropPath()
          (norm2): LayerNorm((120,), eps=1e-05, elementwise_affine=True)
          (mlp): Mlp_GEGLU(
            (fc11): Linear(in_features=120, out_features=240, bias=True)
            (fc12): Linear(in_features=120, out_features=240, bias=True)
            (act): GELU()
            (fc2): Linear(in_features=240, out_features=120, bias=True)
            (drop): Dropout(p=0.0, inplace=False)
          )
        )
        (5): TMSA(
          (norm1): LayerNorm((120,), eps=1e-05, elementwise_affine=True)
          (attn): WindowAttention(
            (qkv_self): Linear(in_features=120, out_features=360, bias=True)
            (proj): Linear(in_features=240, out_features=120, bias=True)
            (qkv_mut): Linear(in_features=120, out_features=360, bias=True)
            (softmax): Softmax(dim=-1)
          )
          (drop_path): DropPath()
          (norm2): LayerNorm((120,), eps=1e-05, elementwise_affine=True)
          (mlp): Mlp_GEGLU(
            (fc11): Linear(in_features=120, out_features=240, bias=True)
            (fc12): Linear(in_features=120, out_features=240, bias=True)
            (act): GELU()
            (fc2): Linear(in_features=240, out_features=120, bias=True)
            (drop): Dropout(p=0.0, inplace=False)
          )
        )
      )
    )
    (linear1): Linear(in_features=120, out_features=120, bias=True)
    (residual_group2): TMSAG(
      (blocks): ModuleList(
        (0): TMSA(
          (norm1): LayerNorm((120,), eps=1e-05, elementwise_affine=True)
          (attn): WindowAttention(
            (qkv_self): Linear(in_features=120, out_features=360, bias=True)
            (proj): Linear(in_features=120, out_features=120, bias=True)
            (softmax): Softmax(dim=-1)
          )
          (drop_path): DropPath()
          (norm2): LayerNorm((120,), eps=1e-05, elementwise_affine=True)
          (mlp): Mlp_GEGLU(
            (fc11): Linear(in_features=120, out_features=240, bias=True)
            (fc12): Linear(in_features=120, out_features=240, bias=True)
            (act): GELU()
            (fc2): Linear(in_features=240, out_features=120, bias=True)
            (drop): Dropout(p=0.0, inplace=False)
          )
        )
        (1): TMSA(
          (norm1): LayerNorm((120,), eps=1e-05, elementwise_affine=True)
          (attn): WindowAttention(
            (qkv_self): Linear(in_features=120, out_features=360, bias=True)
            (proj): Linear(in_features=120, out_features=120, bias=True)
            (softmax): Softmax(dim=-1)
          )
          (drop_path): DropPath()
          (norm2): LayerNorm((120,), eps=1e-05, elementwise_affine=True)
          (mlp): Mlp_GEGLU(
            (fc11): Linear(in_features=120, out_features=240, bias=True)
            (fc12): Linear(in_features=120, out_features=240, bias=True)
            (act): GELU()
            (fc2): Linear(in_features=240, out_features=120, bias=True)
            (drop): Dropout(p=0.0, inplace=False)
          )
        )
      )
    )
    (linear2): Linear(in_features=120, out_features=120, bias=True)
    (pa_deform): DCNv2PackFlowGuided(
      (conv_offset): Sequential(
        (0): Conv2d(242, 120, kernel_size=(3, 3), stride=(1, 1), padding=(1, 1))
        (1): LeakyReLU(negative_slope=0.1, inplace=True)
        (2): Conv2d(120, 120, kernel_size=(3, 3), stride=(1, 1), padding=(1, 1))
        (3): LeakyReLU(negative_slope=0.1, inplace=True)
        (4): Conv2d(120, 120, kernel_size=(3, 3), stride=(1, 1), padding=(1, 1))
        (5): LeakyReLU(negative_slope=0.1, inplace=True)
        (6): Conv2d(120, 324, kernel_size=(3, 3), stride=(1, 1), padding=(1, 1))
      )
    )
    (pa_fuse): Mlp_GEGLU(
      (fc11): Linear(in_features=360, out_features=360, bias=True)
      (fc12): Linear(in_features=360, out_features=360, bias=True)
      (act): GELU()
      (fc2): Linear(in_features=360, out_features=120, bias=True)
      (drop): Dropout(p=0.0, inplace=False)
    )
  )
  (stage3): Stage(
    (reshape): Sequential(
      (0): Rearrange('n c d (h neih) (w neiw) -> n d h w (neiw neih c)', neih=2, neiw=2)
      (1): LayerNorm((480,), eps=1e-05, elementwise_affine=True)
      (2): Linear(in_features=480, out_features=120, bias=True)
      (3): Rearrange('n d h w c -> n c d h w')
    )
    (residual_group1): TMSAG(
      (blocks): ModuleList(
        (0): TMSA(
          (norm1): LayerNorm((120,), eps=1e-05, elementwise_affine=True)
          (attn): WindowAttention(
            (qkv_self): Linear(in_features=120, out_features=360, bias=True)
            (proj): Linear(in_features=240, out_features=120, bias=True)
            (qkv_mut): Linear(in_features=120, out_features=360, bias=True)
            (softmax): Softmax(dim=-1)
          )
          (drop_path): DropPath()
          (norm2): LayerNorm((120,), eps=1e-05, elementwise_affine=True)
          (mlp): Mlp_GEGLU(
            (fc11): Linear(in_features=120, out_features=240, bias=True)
            (fc12): Linear(in_features=120, out_features=240, bias=True)
            (act): GELU()
            (fc2): Linear(in_features=240, out_features=120, bias=True)
            (drop): Dropout(p=0.0, inplace=False)
          )
        )
        (1): TMSA(
          (norm1): LayerNorm((120,), eps=1e-05, elementwise_affine=True)
          (attn): WindowAttention(
            (qkv_self): Linear(in_features=120, out_features=360, bias=True)
            (proj): Linear(in_features=240, out_features=120, bias=True)
            (qkv_mut): Linear(in_features=120, out_features=360, bias=True)
            (softmax): Softmax(dim=-1)
          )
          (drop_path): DropPath()
          (norm2): LayerNorm((120,), eps=1e-05, elementwise_affine=True)
          (mlp): Mlp_GEGLU(
            (fc11): Linear(in_features=120, out_features=240, bias=True)
            (fc12): Linear(in_features=120, out_features=240, bias=True)
            (act): GELU()
            (fc2): Linear(in_features=240, out_features=120, bias=True)
            (drop): Dropout(p=0.0, inplace=False)
          )
        )
        (2): TMSA(
          (norm1): LayerNorm((120,), eps=1e-05, elementwise_affine=True)
          (attn): WindowAttention(
            (qkv_self): Linear(in_features=120, out_features=360, bias=True)
            (proj): Linear(in_features=240, out_features=120, bias=True)
            (qkv_mut): Linear(in_features=120, out_features=360, bias=True)
            (softmax): Softmax(dim=-1)
          )
          (drop_path): DropPath()
          (norm2): LayerNorm((120,), eps=1e-05, elementwise_affine=True)
          (mlp): Mlp_GEGLU(
            (fc11): Linear(in_features=120, out_features=240, bias=True)
            (fc12): Linear(in_features=120, out_features=240, bias=True)
            (act): GELU()
            (fc2): Linear(in_features=240, out_features=120, bias=True)
            (drop): Dropout(p=0.0, inplace=False)
          )
        )
        (3): TMSA(
          (norm1): LayerNorm((120,), eps=1e-05, elementwise_affine=True)
          (attn): WindowAttention(
            (qkv_self): Linear(in_features=120, out_features=360, bias=True)
            (proj): Linear(in_features=240, out_features=120, bias=True)
            (qkv_mut): Linear(in_features=120, out_features=360, bias=True)
            (softmax): Softmax(dim=-1)
          )
          (drop_path): DropPath()
          (norm2): LayerNorm((120,), eps=1e-05, elementwise_affine=True)
          (mlp): Mlp_GEGLU(
            (fc11): Linear(in_features=120, out_features=240, bias=True)
            (fc12): Linear(in_features=120, out_features=240, bias=True)
            (act): GELU()
            (fc2): Linear(in_features=240, out_features=120, bias=True)
            (drop): Dropout(p=0.0, inplace=False)
          )
        )
        (4): TMSA(
          (norm1): LayerNorm((120,), eps=1e-05, elementwise_affine=True)
          (attn): WindowAttention(
            (qkv_self): Linear(in_features=120, out_features=360, bias=True)
            (proj): Linear(in_features=240, out_features=120, bias=True)
            (qkv_mut): Linear(in_features=120, out_features=360, bias=True)
            (softmax): Softmax(dim=-1)
          )
          (drop_path): DropPath()
          (norm2): LayerNorm((120,), eps=1e-05, elementwise_affine=True)
          (mlp): Mlp_GEGLU(
            (fc11): Linear(in_features=120, out_features=240, bias=True)
            (fc12): Linear(in_features=120, out_features=240, bias=True)
            (act): GELU()
            (fc2): Linear(in_features=240, out_features=120, bias=True)
            (drop): Dropout(p=0.0, inplace=False)
          )
        )
        (5): TMSA(
          (norm1): LayerNorm((120,), eps=1e-05, elementwise_affine=True)
          (attn): WindowAttention(
            (qkv_self): Linear(in_features=120, out_features=360, bias=True)
            (proj): Linear(in_features=240, out_features=120, bias=True)
            (qkv_mut): Linear(in_features=120, out_features=360, bias=True)
            (softmax): Softmax(dim=-1)
          )
          (drop_path): DropPath()
          (norm2): LayerNorm((120,), eps=1e-05, elementwise_affine=True)
          (mlp): Mlp_GEGLU(
            (fc11): Linear(in_features=120, out_features=240, bias=True)
            (fc12): Linear(in_features=120, out_features=240, bias=True)
            (act): GELU()
            (fc2): Linear(in_features=240, out_features=120, bias=True)
            (drop): Dropout(p=0.0, inplace=False)
          )
        )
      )
    )
    (linear1): Linear(in_features=120, out_features=120, bias=True)
    (residual_group2): TMSAG(
      (blocks): ModuleList(
        (0): TMSA(
          (norm1): LayerNorm((120,), eps=1e-05, elementwise_affine=True)
          (attn): WindowAttention(
            (qkv_self): Linear(in_features=120, out_features=360, bias=True)
            (proj): Linear(in_features=120, out_features=120, bias=True)
            (softmax): Softmax(dim=-1)
          )
          (drop_path): DropPath()
          (norm2): LayerNorm((120,), eps=1e-05, elementwise_affine=True)
          (mlp): Mlp_GEGLU(
            (fc11): Linear(in_features=120, out_features=240, bias=True)
            (fc12): Linear(in_features=120, out_features=240, bias=True)
            (act): GELU()
            (fc2): Linear(in_features=240, out_features=120, bias=True)
            (drop): Dropout(p=0.0, inplace=False)
          )
        )
        (1): TMSA(
          (norm1): LayerNorm((120,), eps=1e-05, elementwise_affine=True)
          (attn): WindowAttention(
            (qkv_self): Linear(in_features=120, out_features=360, bias=True)
            (proj): Linear(in_features=120, out_features=120, bias=True)
            (softmax): Softmax(dim=-1)
          )
          (drop_path): DropPath()
          (norm2): LayerNorm((120,), eps=1e-05, elementwise_affine=True)
          (mlp): Mlp_GEGLU(
            (fc11): Linear(in_features=120, out_features=240, bias=True)
            (fc12): Linear(in_features=120, out_features=240, bias=True)
            (act): GELU()
            (fc2): Linear(in_features=240, out_features=120, bias=True)
            (drop): Dropout(p=0.0, inplace=False)
          )
        )
      )
    )
    (linear2): Linear(in_features=120, out_features=120, bias=True)
    (pa_deform): DCNv2PackFlowGuided(
      (conv_offset): Sequential(
        (0): Conv2d(242, 120, kernel_size=(3, 3), stride=(1, 1), padding=(1, 1))
        (1): LeakyReLU(negative_slope=0.1, inplace=True)
        (2): Conv2d(120, 120, kernel_size=(3, 3), stride=(1, 1), padding=(1, 1))
        (3): LeakyReLU(negative_slope=0.1, inplace=True)
        (4): Conv2d(120, 120, kernel_size=(3, 3), stride=(1, 1), padding=(1, 1))
        (5): LeakyReLU(negative_slope=0.1, inplace=True)
        (6): Conv2d(120, 324, kernel_size=(3, 3), stride=(1, 1), padding=(1, 1))
      )
    )
    (pa_fuse): Mlp_GEGLU(
      (fc11): Linear(in_features=360, out_features=360, bias=True)
      (fc12): Linear(in_features=360, out_features=360, bias=True)
      (act): GELU()
      (fc2): Linear(in_features=360, out_features=120, bias=True)
      (drop): Dropout(p=0.0, inplace=False)
    )
  )
  (stage4): Stage(
    (reshape): Sequential(
      (0): Rearrange('n c d (h neih) (w neiw) -> n d h w (neiw neih c)', neih=2, neiw=2)
      (1): LayerNorm((480,), eps=1e-05, elementwise_affine=True)
      (2): Linear(in_features=480, out_features=120, bias=True)
      (3): Rearrange('n d h w c -> n c d h w')
    )
    (residual_group1): TMSAG(
      (blocks): ModuleList(
        (0): TMSA(
          (norm1): LayerNorm((120,), eps=1e-05, elementwise_affine=True)
          (attn): WindowAttention(
            (qkv_self): Linear(in_features=120, out_features=360, bias=True)
            (proj): Linear(in_features=240, out_features=120, bias=True)
            (qkv_mut): Linear(in_features=120, out_features=360, bias=True)
            (softmax): Softmax(dim=-1)
          )
          (drop_path): DropPath()
          (norm2): LayerNorm((120,), eps=1e-05, elementwise_affine=True)
          (mlp): Mlp_GEGLU(
            (fc11): Linear(in_features=120, out_features=240, bias=True)
            (fc12): Linear(in_features=120, out_features=240, bias=True)
            (act): GELU()
            (fc2): Linear(in_features=240, out_features=120, bias=True)
            (drop): Dropout(p=0.0, inplace=False)
          )
        )
        (1): TMSA(
          (norm1): LayerNorm((120,), eps=1e-05, elementwise_affine=True)
          (attn): WindowAttention(
            (qkv_self): Linear(in_features=120, out_features=360, bias=True)
            (proj): Linear(in_features=240, out_features=120, bias=True)
            (qkv_mut): Linear(in_features=120, out_features=360, bias=True)
            (softmax): Softmax(dim=-1)
          )
          (drop_path): DropPath()
          (norm2): LayerNorm((120,), eps=1e-05, elementwise_affine=True)
          (mlp): Mlp_GEGLU(
            (fc11): Linear(in_features=120, out_features=240, bias=True)
            (fc12): Linear(in_features=120, out_features=240, bias=True)
            (act): GELU()
            (fc2): Linear(in_features=240, out_features=120, bias=True)
            (drop): Dropout(p=0.0, inplace=False)
          )
        )
        (2): TMSA(
          (norm1): LayerNorm((120,), eps=1e-05, elementwise_affine=True)
          (attn): WindowAttention(
            (qkv_self): Linear(in_features=120, out_features=360, bias=True)
            (proj): Linear(in_features=240, out_features=120, bias=True)
            (qkv_mut): Linear(in_features=120, out_features=360, bias=True)
            (softmax): Softmax(dim=-1)
          )
          (drop_path): DropPath()
          (norm2): LayerNorm((120,), eps=1e-05, elementwise_affine=True)
          (mlp): Mlp_GEGLU(
            (fc11): Linear(in_features=120, out_features=240, bias=True)
            (fc12): Linear(in_features=120, out_features=240, bias=True)
            (act): GELU()
            (fc2): Linear(in_features=240, out_features=120, bias=True)
            (drop): Dropout(p=0.0, inplace=False)
          )
        )
        (3): TMSA(
          (norm1): LayerNorm((120,), eps=1e-05, elementwise_affine=True)
          (attn): WindowAttention(
            (qkv_self): Linear(in_features=120, out_features=360, bias=True)
            (proj): Linear(in_features=240, out_features=120, bias=True)
            (qkv_mut): Linear(in_features=120, out_features=360, bias=True)
            (softmax): Softmax(dim=-1)
          )
          (drop_path): DropPath()
          (norm2): LayerNorm((120,), eps=1e-05, elementwise_affine=True)
          (mlp): Mlp_GEGLU(
            (fc11): Linear(in_features=120, out_features=240, bias=True)
            (fc12): Linear(in_features=120, out_features=240, bias=True)
            (act): GELU()
            (fc2): Linear(in_features=240, out_features=120, bias=True)
            (drop): Dropout(p=0.0, inplace=False)
          )
        )
        (4): TMSA(
          (norm1): LayerNorm((120,), eps=1e-05, elementwise_affine=True)
          (attn): WindowAttention(
            (qkv_self): Linear(in_features=120, out_features=360, bias=True)
            (proj): Linear(in_features=240, out_features=120, bias=True)
            (qkv_mut): Linear(in_features=120, out_features=360, bias=True)
            (softmax): Softmax(dim=-1)
          )
          (drop_path): DropPath()
          (norm2): LayerNorm((120,), eps=1e-05, elementwise_affine=True)
          (mlp): Mlp_GEGLU(
            (fc11): Linear(in_features=120, out_features=240, bias=True)
            (fc12): Linear(in_features=120, out_features=240, bias=True)
            (act): GELU()
            (fc2): Linear(in_features=240, out_features=120, bias=True)
            (drop): Dropout(p=0.0, inplace=False)
          )
        )
        (5): TMSA(
          (norm1): LayerNorm((120,), eps=1e-05, elementwise_affine=True)
          (attn): WindowAttention(
            (qkv_self): Linear(in_features=120, out_features=360, bias=True)
            (proj): Linear(in_features=240, out_features=120, bias=True)
            (qkv_mut): Linear(in_features=120, out_features=360, bias=True)
            (softmax): Softmax(dim=-1)
          )
          (drop_path): DropPath()
          (norm2): LayerNorm((120,), eps=1e-05, elementwise_affine=True)
          (mlp): Mlp_GEGLU(
            (fc11): Linear(in_features=120, out_features=240, bias=True)
            (fc12): Linear(in_features=120, out_features=240, bias=True)
            (act): GELU()
            (fc2): Linear(in_features=240, out_features=120, bias=True)
            (drop): Dropout(p=0.0, inplace=False)
          )
        )
      )
    )
    (linear1): Linear(in_features=120, out_features=120, bias=True)
    (residual_group2): TMSAG(
      (blocks): ModuleList(
        (0): TMSA(
          (norm1): LayerNorm((120,), eps=1e-05, elementwise_affine=True)
          (attn): WindowAttention(
            (qkv_self): Linear(in_features=120, out_features=360, bias=True)
            (proj): Linear(in_features=120, out_features=120, bias=True)
            (softmax): Softmax(dim=-1)
          )
          (drop_path): DropPath()
          (norm2): LayerNorm((120,), eps=1e-05, elementwise_affine=True)
          (mlp): Mlp_GEGLU(
            (fc11): Linear(in_features=120, out_features=240, bias=True)
            (fc12): Linear(in_features=120, out_features=240, bias=True)
            (act): GELU()
            (fc2): Linear(in_features=240, out_features=120, bias=True)
            (drop): Dropout(p=0.0, inplace=False)
          )
        )
        (1): TMSA(
          (norm1): LayerNorm((120,), eps=1e-05, elementwise_affine=True)
          (attn): WindowAttention(
            (qkv_self): Linear(in_features=120, out_features=360, bias=True)
            (proj): Linear(in_features=120, out_features=120, bias=True)
            (softmax): Softmax(dim=-1)
          )
          (drop_path): DropPath()
          (norm2): LayerNorm((120,), eps=1e-05, elementwise_affine=True)
          (mlp): Mlp_GEGLU(
            (fc11): Linear(in_features=120, out_features=240, bias=True)
            (fc12): Linear(in_features=120, out_features=240, bias=True)
            (act): GELU()
            (fc2): Linear(in_features=240, out_features=120, bias=True)
            (drop): Dropout(p=0.0, inplace=False)
          )
        )
      )
    )
    (linear2): Linear(in_features=120, out_features=120, bias=True)
    (pa_deform): DCNv2PackFlowGuided(
      (conv_offset): Sequential(
        (0): Conv2d(242, 120, kernel_size=(3, 3), stride=(1, 1), padding=(1, 1))
        (1): LeakyReLU(negative_slope=0.1, inplace=True)
        (2): Conv2d(120, 120, kernel_size=(3, 3), stride=(1, 1), padding=(1, 1))
        (3): LeakyReLU(negative_slope=0.1, inplace=True)
        (4): Conv2d(120, 120, kernel_size=(3, 3), stride=(1, 1), padding=(1, 1))
        (5): LeakyReLU(negative_slope=0.1, inplace=True)
        (6): Conv2d(120, 324, kernel_size=(3, 3), stride=(1, 1), padding=(1, 1))
      )
    )
    (pa_fuse): Mlp_GEGLU(
      (fc11): Linear(in_features=360, out_features=360, bias=True)
      (fc12): Linear(in_features=360, out_features=360, bias=True)
      (act): GELU()
      (fc2): Linear(in_features=360, out_features=120, bias=True)
      (drop): Dropout(p=0.0, inplace=False)
    )
  )
  (stage5): Stage(
    (reshape): Sequential(
      (0): Rearrange('n (neiw neih c) d h w -> n d (h neih) (w neiw) c', neih=2, neiw=2)
      (1): LayerNorm((30,), eps=1e-05, elementwise_affine=True)
      (2): Linear(in_features=30, out_features=120, bias=True)
      (3): Rearrange('n d h w c -> n c d h w')
    )
    (residual_group1): TMSAG(
      (blocks): ModuleList(
        (0): TMSA(
          (norm1): LayerNorm((120,), eps=1e-05, elementwise_affine=True)
          (attn): WindowAttention(
            (qkv_self): Linear(in_features=120, out_features=360, bias=True)
            (proj): Linear(in_features=240, out_features=120, bias=True)
            (qkv_mut): Linear(in_features=120, out_features=360, bias=True)
            (softmax): Softmax(dim=-1)
          )
          (drop_path): DropPath()
          (norm2): LayerNorm((120,), eps=1e-05, elementwise_affine=True)
          (mlp): Mlp_GEGLU(
            (fc11): Linear(in_features=120, out_features=240, bias=True)
            (fc12): Linear(in_features=120, out_features=240, bias=True)
            (act): GELU()
            (fc2): Linear(in_features=240, out_features=120, bias=True)
            (drop): Dropout(p=0.0, inplace=False)
          )
        )
        (1): TMSA(
          (norm1): LayerNorm((120,), eps=1e-05, elementwise_affine=True)
          (attn): WindowAttention(
            (qkv_self): Linear(in_features=120, out_features=360, bias=True)
            (proj): Linear(in_features=240, out_features=120, bias=True)
            (qkv_mut): Linear(in_features=120, out_features=360, bias=True)
            (softmax): Softmax(dim=-1)
          )
          (drop_path): DropPath()
          (norm2): LayerNorm((120,), eps=1e-05, elementwise_affine=True)
          (mlp): Mlp_GEGLU(
            (fc11): Linear(in_features=120, out_features=240, bias=True)
            (fc12): Linear(in_features=120, out_features=240, bias=True)
            (act): GELU()
            (fc2): Linear(in_features=240, out_features=120, bias=True)
            (drop): Dropout(p=0.0, inplace=False)
          )
        )
        (2): TMSA(
          (norm1): LayerNorm((120,), eps=1e-05, elementwise_affine=True)
          (attn): WindowAttention(
            (qkv_self): Linear(in_features=120, out_features=360, bias=True)
            (proj): Linear(in_features=240, out_features=120, bias=True)
            (qkv_mut): Linear(in_features=120, out_features=360, bias=True)
            (softmax): Softmax(dim=-1)
          )
          (drop_path): DropPath()
          (norm2): LayerNorm((120,), eps=1e-05, elementwise_affine=True)
          (mlp): Mlp_GEGLU(
            (fc11): Linear(in_features=120, out_features=240, bias=True)
            (fc12): Linear(in_features=120, out_features=240, bias=True)
            (act): GELU()
            (fc2): Linear(in_features=240, out_features=120, bias=True)
            (drop): Dropout(p=0.0, inplace=False)
          )
        )
        (3): TMSA(
          (norm1): LayerNorm((120,), eps=1e-05, elementwise_affine=True)
          (attn): WindowAttention(
            (qkv_self): Linear(in_features=120, out_features=360, bias=True)
            (proj): Linear(in_features=240, out_features=120, bias=True)
            (qkv_mut): Linear(in_features=120, out_features=360, bias=True)
            (softmax): Softmax(dim=-1)
          )
          (drop_path): DropPath()
          (norm2): LayerNorm((120,), eps=1e-05, elementwise_affine=True)
          (mlp): Mlp_GEGLU(
            (fc11): Linear(in_features=120, out_features=240, bias=True)
            (fc12): Linear(in_features=120, out_features=240, bias=True)
            (act): GELU()
            (fc2): Linear(in_features=240, out_features=120, bias=True)
            (drop): Dropout(p=0.0, inplace=False)
          )
        )
        (4): TMSA(
          (norm1): LayerNorm((120,), eps=1e-05, elementwise_affine=True)
          (attn): WindowAttention(
            (qkv_self): Linear(in_features=120, out_features=360, bias=True)
            (proj): Linear(in_features=240, out_features=120, bias=True)
            (qkv_mut): Linear(in_features=120, out_features=360, bias=True)
            (softmax): Softmax(dim=-1)
          )
          (drop_path): DropPath()
          (norm2): LayerNorm((120,), eps=1e-05, elementwise_affine=True)
          (mlp): Mlp_GEGLU(
            (fc11): Linear(in_features=120, out_features=240, bias=True)
            (fc12): Linear(in_features=120, out_features=240, bias=True)
            (act): GELU()
            (fc2): Linear(in_features=240, out_features=120, bias=True)
            (drop): Dropout(p=0.0, inplace=False)
          )
        )
        (5): TMSA(
          (norm1): LayerNorm((120,), eps=1e-05, elementwise_affine=True)
          (attn): WindowAttention(
            (qkv_self): Linear(in_features=120, out_features=360, bias=True)
            (proj): Linear(in_features=240, out_features=120, bias=True)
            (qkv_mut): Linear(in_features=120, out_features=360, bias=True)
            (softmax): Softmax(dim=-1)
          )
          (drop_path): DropPath()
          (norm2): LayerNorm((120,), eps=1e-05, elementwise_affine=True)
          (mlp): Mlp_GEGLU(
            (fc11): Linear(in_features=120, out_features=240, bias=True)
            (fc12): Linear(in_features=120, out_features=240, bias=True)
            (act): GELU()
            (fc2): Linear(in_features=240, out_features=120, bias=True)
            (drop): Dropout(p=0.0, inplace=False)
          )
        )
      )
    )
    (linear1): Linear(in_features=120, out_features=120, bias=True)
    (residual_group2): TMSAG(
      (blocks): ModuleList(
        (0): TMSA(
          (norm1): LayerNorm((120,), eps=1e-05, elementwise_affine=True)
          (attn): WindowAttention(
            (qkv_self): Linear(in_features=120, out_features=360, bias=True)
            (proj): Linear(in_features=120, out_features=120, bias=True)
            (softmax): Softmax(dim=-1)
          )
          (drop_path): DropPath()
          (norm2): LayerNorm((120,), eps=1e-05, elementwise_affine=True)
          (mlp): Mlp_GEGLU(
            (fc11): Linear(in_features=120, out_features=240, bias=True)
            (fc12): Linear(in_features=120, out_features=240, bias=True)
            (act): GELU()
            (fc2): Linear(in_features=240, out_features=120, bias=True)
            (drop): Dropout(p=0.0, inplace=False)
          )
        )
        (1): TMSA(
          (norm1): LayerNorm((120,), eps=1e-05, elementwise_affine=True)
          (attn): WindowAttention(
            (qkv_self): Linear(in_features=120, out_features=360, bias=True)
            (proj): Linear(in_features=120, out_features=120, bias=True)
            (softmax): Softmax(dim=-1)
          )
          (drop_path): DropPath()
          (norm2): LayerNorm((120,), eps=1e-05, elementwise_affine=True)
          (mlp): Mlp_GEGLU(
            (fc11): Linear(in_features=120, out_features=240, bias=True)
            (fc12): Linear(in_features=120, out_features=240, bias=True)
            (act): GELU()
            (fc2): Linear(in_features=240, out_features=120, bias=True)
            (drop): Dropout(p=0.0, inplace=False)
          )
        )
      )
    )
    (linear2): Linear(in_features=120, out_features=120, bias=True)
    (pa_deform): DCNv2PackFlowGuided(
      (conv_offset): Sequential(
        (0): Conv2d(242, 120, kernel_size=(3, 3), stride=(1, 1), padding=(1, 1))
        (1): LeakyReLU(negative_slope=0.1, inplace=True)
        (2): Conv2d(120, 120, kernel_size=(3, 3), stride=(1, 1), padding=(1, 1))
        (3): LeakyReLU(negative_slope=0.1, inplace=True)
        (4): Conv2d(120, 120, kernel_size=(3, 3), stride=(1, 1), padding=(1, 1))
        (5): LeakyReLU(negative_slope=0.1, inplace=True)
        (6): Conv2d(120, 324, kernel_size=(3, 3), stride=(1, 1), padding=(1, 1))
      )
    )
    (pa_fuse): Mlp_GEGLU(
      (fc11): Linear(in_features=360, out_features=360, bias=True)
      (fc12): Linear(in_features=360, out_features=360, bias=True)
      (act): GELU()
      (fc2): Linear(in_features=360, out_features=120, bias=True)
      (drop): Dropout(p=0.0, inplace=False)
    )
  )
  (stage6): Stage(
    (reshape): Sequential(
      (0): Rearrange('n (neiw neih c) d h w -> n d (h neih) (w neiw) c', neih=2, neiw=2)
      (1): LayerNorm((30,), eps=1e-05, elementwise_affine=True)
      (2): Linear(in_features=30, out_features=120, bias=True)
      (3): Rearrange('n d h w c -> n c d h w')
    )
    (residual_group1): TMSAG(
      (blocks): ModuleList(
        (0): TMSA(
          (norm1): LayerNorm((120,), eps=1e-05, elementwise_affine=True)
          (attn): WindowAttention(
            (qkv_self): Linear(in_features=120, out_features=360, bias=True)
            (proj): Linear(in_features=240, out_features=120, bias=True)
            (qkv_mut): Linear(in_features=120, out_features=360, bias=True)
            (softmax): Softmax(dim=-1)
          )
          (drop_path): DropPath()
          (norm2): LayerNorm((120,), eps=1e-05, elementwise_affine=True)
          (mlp): Mlp_GEGLU(
            (fc11): Linear(in_features=120, out_features=240, bias=True)
            (fc12): Linear(in_features=120, out_features=240, bias=True)
            (act): GELU()
            (fc2): Linear(in_features=240, out_features=120, bias=True)
            (drop): Dropout(p=0.0, inplace=False)
          )
        )
        (1): TMSA(
          (norm1): LayerNorm((120,), eps=1e-05, elementwise_affine=True)
          (attn): WindowAttention(
            (qkv_self): Linear(in_features=120, out_features=360, bias=True)
            (proj): Linear(in_features=240, out_features=120, bias=True)
            (qkv_mut): Linear(in_features=120, out_features=360, bias=True)
            (softmax): Softmax(dim=-1)
          )
          (drop_path): DropPath()
          (norm2): LayerNorm((120,), eps=1e-05, elementwise_affine=True)
          (mlp): Mlp_GEGLU(
            (fc11): Linear(in_features=120, out_features=240, bias=True)
            (fc12): Linear(in_features=120, out_features=240, bias=True)
            (act): GELU()
            (fc2): Linear(in_features=240, out_features=120, bias=True)
            (drop): Dropout(p=0.0, inplace=False)
          )
        )
        (2): TMSA(
          (norm1): LayerNorm((120,), eps=1e-05, elementwise_affine=True)
          (attn): WindowAttention(
            (qkv_self): Linear(in_features=120, out_features=360, bias=True)
            (proj): Linear(in_features=240, out_features=120, bias=True)
            (qkv_mut): Linear(in_features=120, out_features=360, bias=True)
            (softmax): Softmax(dim=-1)
          )
          (drop_path): DropPath()
          (norm2): LayerNorm((120,), eps=1e-05, elementwise_affine=True)
          (mlp): Mlp_GEGLU(
            (fc11): Linear(in_features=120, out_features=240, bias=True)
            (fc12): Linear(in_features=120, out_features=240, bias=True)
            (act): GELU()
            (fc2): Linear(in_features=240, out_features=120, bias=True)
            (drop): Dropout(p=0.0, inplace=False)
          )
        )
        (3): TMSA(
          (norm1): LayerNorm((120,), eps=1e-05, elementwise_affine=True)
          (attn): WindowAttention(
            (qkv_self): Linear(in_features=120, out_features=360, bias=True)
            (proj): Linear(in_features=240, out_features=120, bias=True)
            (qkv_mut): Linear(in_features=120, out_features=360, bias=True)
            (softmax): Softmax(dim=-1)
          )
          (drop_path): DropPath()
          (norm2): LayerNorm((120,), eps=1e-05, elementwise_affine=True)
          (mlp): Mlp_GEGLU(
            (fc11): Linear(in_features=120, out_features=240, bias=True)
            (fc12): Linear(in_features=120, out_features=240, bias=True)
            (act): GELU()
            (fc2): Linear(in_features=240, out_features=120, bias=True)
            (drop): Dropout(p=0.0, inplace=False)
          )
        )
        (4): TMSA(
          (norm1): LayerNorm((120,), eps=1e-05, elementwise_affine=True)
          (attn): WindowAttention(
            (qkv_self): Linear(in_features=120, out_features=360, bias=True)
            (proj): Linear(in_features=240, out_features=120, bias=True)
            (qkv_mut): Linear(in_features=120, out_features=360, bias=True)
            (softmax): Softmax(dim=-1)
          )
          (drop_path): DropPath()
          (norm2): LayerNorm((120,), eps=1e-05, elementwise_affine=True)
          (mlp): Mlp_GEGLU(
            (fc11): Linear(in_features=120, out_features=240, bias=True)
            (fc12): Linear(in_features=120, out_features=240, bias=True)
            (act): GELU()
            (fc2): Linear(in_features=240, out_features=120, bias=True)
            (drop): Dropout(p=0.0, inplace=False)
          )
        )
        (5): TMSA(
          (norm1): LayerNorm((120,), eps=1e-05, elementwise_affine=True)
          (attn): WindowAttention(
            (qkv_self): Linear(in_features=120, out_features=360, bias=True)
            (proj): Linear(in_features=240, out_features=120, bias=True)
            (qkv_mut): Linear(in_features=120, out_features=360, bias=True)
            (softmax): Softmax(dim=-1)
          )
          (drop_path): DropPath()
          (norm2): LayerNorm((120,), eps=1e-05, elementwise_affine=True)
          (mlp): Mlp_GEGLU(
            (fc11): Linear(in_features=120, out_features=240, bias=True)
            (fc12): Linear(in_features=120, out_features=240, bias=True)
            (act): GELU()
            (fc2): Linear(in_features=240, out_features=120, bias=True)
            (drop): Dropout(p=0.0, inplace=False)
          )
        )
      )
    )
    (linear1): Linear(in_features=120, out_features=120, bias=True)
    (residual_group2): TMSAG(
      (blocks): ModuleList(
        (0): TMSA(
          (norm1): LayerNorm((120,), eps=1e-05, elementwise_affine=True)
          (attn): WindowAttention(
            (qkv_self): Linear(in_features=120, out_features=360, bias=True)
            (proj): Linear(in_features=120, out_features=120, bias=True)
            (softmax): Softmax(dim=-1)
          )
          (drop_path): DropPath()
          (norm2): LayerNorm((120,), eps=1e-05, elementwise_affine=True)
          (mlp): Mlp_GEGLU(
            (fc11): Linear(in_features=120, out_features=240, bias=True)
            (fc12): Linear(in_features=120, out_features=240, bias=True)
            (act): GELU()
            (fc2): Linear(in_features=240, out_features=120, bias=True)
            (drop): Dropout(p=0.0, inplace=False)
          )
        )
        (1): TMSA(
          (norm1): LayerNorm((120,), eps=1e-05, elementwise_affine=True)
          (attn): WindowAttention(
            (qkv_self): Linear(in_features=120, out_features=360, bias=True)
            (proj): Linear(in_features=120, out_features=120, bias=True)
            (softmax): Softmax(dim=-1)
          )
          (drop_path): DropPath()
          (norm2): LayerNorm((120,), eps=1e-05, elementwise_affine=True)
          (mlp): Mlp_GEGLU(
            (fc11): Linear(in_features=120, out_features=240, bias=True)
            (fc12): Linear(in_features=120, out_features=240, bias=True)
            (act): GELU()
            (fc2): Linear(in_features=240, out_features=120, bias=True)
            (drop): Dropout(p=0.0, inplace=False)
          )
        )
      )
    )
    (linear2): Linear(in_features=120, out_features=120, bias=True)
    (pa_deform): DCNv2PackFlowGuided(
      (conv_offset): Sequential(
        (0): Conv2d(242, 120, kernel_size=(3, 3), stride=(1, 1), padding=(1, 1))
        (1): LeakyReLU(negative_slope=0.1, inplace=True)
        (2): Conv2d(120, 120, kernel_size=(3, 3), stride=(1, 1), padding=(1, 1))
        (3): LeakyReLU(negative_slope=0.1, inplace=True)
        (4): Conv2d(120, 120, kernel_size=(3, 3), stride=(1, 1), padding=(1, 1))
        (5): LeakyReLU(negative_slope=0.1, inplace=True)
        (6): Conv2d(120, 324, kernel_size=(3, 3), stride=(1, 1), padding=(1, 1))
      )
    )
    (pa_fuse): Mlp_GEGLU(
      (fc11): Linear(in_features=360, out_features=360, bias=True)
      (fc12): Linear(in_features=360, out_features=360, bias=True)
      (act): GELU()
      (fc2): Linear(in_features=360, out_features=120, bias=True)
      (drop): Dropout(p=0.0, inplace=False)
    )
  )
  (stage7): Stage(
    (reshape): Sequential(
      (0): Rearrange('n (neiw neih c) d h w -> n d (h neih) (w neiw) c', neih=2, neiw=2)
      (1): LayerNorm((30,), eps=1e-05, elementwise_affine=True)
      (2): Linear(in_features=30, out_features=120, bias=True)
      (3): Rearrange('n d h w c -> n c d h w')
    )
    (residual_group1): TMSAG(
      (blocks): ModuleList(
        (0): TMSA(
          (norm1): LayerNorm((120,), eps=1e-05, elementwise_affine=True)
          (attn): WindowAttention(
            (qkv_self): Linear(in_features=120, out_features=360, bias=True)
            (proj): Linear(in_features=240, out_features=120, bias=True)
            (qkv_mut): Linear(in_features=120, out_features=360, bias=True)
            (softmax): Softmax(dim=-1)
          )
          (drop_path): DropPath()
          (norm2): LayerNorm((120,), eps=1e-05, elementwise_affine=True)
          (mlp): Mlp_GEGLU(
            (fc11): Linear(in_features=120, out_features=240, bias=True)
            (fc12): Linear(in_features=120, out_features=240, bias=True)
            (act): GELU()
            (fc2): Linear(in_features=240, out_features=120, bias=True)
            (drop): Dropout(p=0.0, inplace=False)
          )
        )
        (1): TMSA(
          (norm1): LayerNorm((120,), eps=1e-05, elementwise_affine=True)
          (attn): WindowAttention(
            (qkv_self): Linear(in_features=120, out_features=360, bias=True)
            (proj): Linear(in_features=240, out_features=120, bias=True)
            (qkv_mut): Linear(in_features=120, out_features=360, bias=True)
            (softmax): Softmax(dim=-1)
          )
          (drop_path): DropPath()
          (norm2): LayerNorm((120,), eps=1e-05, elementwise_affine=True)
          (mlp): Mlp_GEGLU(
            (fc11): Linear(in_features=120, out_features=240, bias=True)
            (fc12): Linear(in_features=120, out_features=240, bias=True)
            (act): GELU()
            (fc2): Linear(in_features=240, out_features=120, bias=True)
            (drop): Dropout(p=0.0, inplace=False)
          )
        )
        (2): TMSA(
          (norm1): LayerNorm((120,), eps=1e-05, elementwise_affine=True)
          (attn): WindowAttention(
            (qkv_self): Linear(in_features=120, out_features=360, bias=True)
            (proj): Linear(in_features=240, out_features=120, bias=True)
            (qkv_mut): Linear(in_features=120, out_features=360, bias=True)
            (softmax): Softmax(dim=-1)
          )
          (drop_path): DropPath()
          (norm2): LayerNorm((120,), eps=1e-05, elementwise_affine=True)
          (mlp): Mlp_GEGLU(
            (fc11): Linear(in_features=120, out_features=240, bias=True)
            (fc12): Linear(in_features=120, out_features=240, bias=True)
            (act): GELU()
            (fc2): Linear(in_features=240, out_features=120, bias=True)
            (drop): Dropout(p=0.0, inplace=False)
          )
        )
        (3): TMSA(
          (norm1): LayerNorm((120,), eps=1e-05, elementwise_affine=True)
          (attn): WindowAttention(
            (qkv_self): Linear(in_features=120, out_features=360, bias=True)
            (proj): Linear(in_features=240, out_features=120, bias=True)
            (qkv_mut): Linear(in_features=120, out_features=360, bias=True)
            (softmax): Softmax(dim=-1)
          )
          (drop_path): DropPath()
          (norm2): LayerNorm((120,), eps=1e-05, elementwise_affine=True)
          (mlp): Mlp_GEGLU(
            (fc11): Linear(in_features=120, out_features=240, bias=True)
            (fc12): Linear(in_features=120, out_features=240, bias=True)
            (act): GELU()
            (fc2): Linear(in_features=240, out_features=120, bias=True)
            (drop): Dropout(p=0.0, inplace=False)
          )
        )
        (4): TMSA(
          (norm1): LayerNorm((120,), eps=1e-05, elementwise_affine=True)
          (attn): WindowAttention(
            (qkv_self): Linear(in_features=120, out_features=360, bias=True)
            (proj): Linear(in_features=240, out_features=120, bias=True)
            (qkv_mut): Linear(in_features=120, out_features=360, bias=True)
            (softmax): Softmax(dim=-1)
          )
          (drop_path): DropPath()
          (norm2): LayerNorm((120,), eps=1e-05, elementwise_affine=True)
          (mlp): Mlp_GEGLU(
            (fc11): Linear(in_features=120, out_features=240, bias=True)
            (fc12): Linear(in_features=120, out_features=240, bias=True)
            (act): GELU()
            (fc2): Linear(in_features=240, out_features=120, bias=True)
            (drop): Dropout(p=0.0, inplace=False)
          )
        )
        (5): TMSA(
          (norm1): LayerNorm((120,), eps=1e-05, elementwise_affine=True)
          (attn): WindowAttention(
            (qkv_self): Linear(in_features=120, out_features=360, bias=True)
            (proj): Linear(in_features=240, out_features=120, bias=True)
            (qkv_mut): Linear(in_features=120, out_features=360, bias=True)
            (softmax): Softmax(dim=-1)
          )
          (drop_path): DropPath()
          (norm2): LayerNorm((120,), eps=1e-05, elementwise_affine=True)
          (mlp): Mlp_GEGLU(
            (fc11): Linear(in_features=120, out_features=240, bias=True)
            (fc12): Linear(in_features=120, out_features=240, bias=True)
            (act): GELU()
            (fc2): Linear(in_features=240, out_features=120, bias=True)
            (drop): Dropout(p=0.0, inplace=False)
          )
        )
      )
    )
    (linear1): Linear(in_features=120, out_features=120, bias=True)
    (residual_group2): TMSAG(
      (blocks): ModuleList(
        (0): TMSA(
          (norm1): LayerNorm((120,), eps=1e-05, elementwise_affine=True)
          (attn): WindowAttention(
            (qkv_self): Linear(in_features=120, out_features=360, bias=True)
            (proj): Linear(in_features=120, out_features=120, bias=True)
            (softmax): Softmax(dim=-1)
          )
          (drop_path): DropPath()
          (norm2): LayerNorm((120,), eps=1e-05, elementwise_affine=True)
          (mlp): Mlp_GEGLU(
            (fc11): Linear(in_features=120, out_features=240, bias=True)
            (fc12): Linear(in_features=120, out_features=240, bias=True)
            (act): GELU()
            (fc2): Linear(in_features=240, out_features=120, bias=True)
            (drop): Dropout(p=0.0, inplace=False)
          )
        )
        (1): TMSA(
          (norm1): LayerNorm((120,), eps=1e-05, elementwise_affine=True)
          (attn): WindowAttention(
            (qkv_self): Linear(in_features=120, out_features=360, bias=True)
            (proj): Linear(in_features=120, out_features=120, bias=True)
            (softmax): Softmax(dim=-1)
          )
          (drop_path): DropPath()
          (norm2): LayerNorm((120,), eps=1e-05, elementwise_affine=True)
          (mlp): Mlp_GEGLU(
            (fc11): Linear(in_features=120, out_features=240, bias=True)
            (fc12): Linear(in_features=120, out_features=240, bias=True)
            (act): GELU()
            (fc2): Linear(in_features=240, out_features=120, bias=True)
            (drop): Dropout(p=0.0, inplace=False)
          )
        )
      )
    )
    (linear2): Linear(in_features=120, out_features=120, bias=True)
    (pa_deform): DCNv2PackFlowGuided(
      (conv_offset): Sequential(
        (0): Conv2d(242, 120, kernel_size=(3, 3), stride=(1, 1), padding=(1, 1))
        (1): LeakyReLU(negative_slope=0.1, inplace=True)
        (2): Conv2d(120, 120, kernel_size=(3, 3), stride=(1, 1), padding=(1, 1))
        (3): LeakyReLU(negative_slope=0.1, inplace=True)
        (4): Conv2d(120, 120, kernel_size=(3, 3), stride=(1, 1), padding=(1, 1))
        (5): LeakyReLU(negative_slope=0.1, inplace=True)
        (6): Conv2d(120, 324, kernel_size=(3, 3), stride=(1, 1), padding=(1, 1))
      )
    )
    (pa_fuse): Mlp_GEGLU(
      (fc11): Linear(in_features=360, out_features=360, bias=True)
      (fc12): Linear(in_features=360, out_features=360, bias=True)
      (act): GELU()
      (fc2): Linear(in_features=360, out_features=120, bias=True)
      (drop): Dropout(p=0.0, inplace=False)
    )
  )
  (stage8): ModuleList(
    (0): Sequential(
      (0): Rearrange('n c d h w ->  n d h w c')
      (1): LayerNorm((120,), eps=1e-05, elementwise_affine=True)
      (2): Linear(in_features=120, out_features=180, bias=True)
      (3): Rearrange('n d h w c -> n c d h w')
    )
    (1): RTMSA(
      (residual_group): TMSAG(
        (blocks): ModuleList(
          (0): TMSA(
            (norm1): LayerNorm((180,), eps=1e-05, elementwise_affine=True)
            (attn): WindowAttention(
              (qkv_self): Linear(in_features=180, out_features=540, bias=True)
              (proj): Linear(in_features=180, out_features=180, bias=True)
              (softmax): Softmax(dim=-1)
            )
            (drop_path): DropPath()
            (norm2): LayerNorm((180,), eps=1e-05, elementwise_affine=True)
            (mlp): Mlp_GEGLU(
              (fc11): Linear(in_features=180, out_features=360, bias=True)
              (fc12): Linear(in_features=180, out_features=360, bias=True)
              (act): GELU()
              (fc2): Linear(in_features=360, out_features=180, bias=True)
              (drop): Dropout(p=0.0, inplace=False)
            )
          )
          (1): TMSA(
            (norm1): LayerNorm((180,), eps=1e-05, elementwise_affine=True)
            (attn): WindowAttention(
              (qkv_self): Linear(in_features=180, out_features=540, bias=True)
              (proj): Linear(in_features=180, out_features=180, bias=True)
              (softmax): Softmax(dim=-1)
            )
            (drop_path): DropPath()
            (norm2): LayerNorm((180,), eps=1e-05, elementwise_affine=True)
            (mlp): Mlp_GEGLU(
              (fc11): Linear(in_features=180, out_features=360, bias=True)
              (fc12): Linear(in_features=180, out_features=360, bias=True)
              (act): GELU()
              (fc2): Linear(in_features=360, out_features=180, bias=True)
              (drop): Dropout(p=0.0, inplace=False)
            )
          )
          (2): TMSA(
            (norm1): LayerNorm((180,), eps=1e-05, elementwise_affine=True)
            (attn): WindowAttention(
              (qkv_self): Linear(in_features=180, out_features=540, bias=True)
              (proj): Linear(in_features=180, out_features=180, bias=True)
              (softmax): Softmax(dim=-1)
            )
            (drop_path): DropPath()
            (norm2): LayerNorm((180,), eps=1e-05, elementwise_affine=True)
            (mlp): Mlp_GEGLU(
              (fc11): Linear(in_features=180, out_features=360, bias=True)
              (fc12): Linear(in_features=180, out_features=360, bias=True)
              (act): GELU()
              (fc2): Linear(in_features=360, out_features=180, bias=True)
              (drop): Dropout(p=0.0, inplace=False)
            )
          )
          (3): TMSA(
            (norm1): LayerNorm((180,), eps=1e-05, elementwise_affine=True)
            (attn): WindowAttention(
              (qkv_self): Linear(in_features=180, out_features=540, bias=True)
              (proj): Linear(in_features=180, out_features=180, bias=True)
              (softmax): Softmax(dim=-1)
            )
            (drop_path): DropPath()
            (norm2): LayerNorm((180,), eps=1e-05, elementwise_affine=True)
            (mlp): Mlp_GEGLU(
              (fc11): Linear(in_features=180, out_features=360, bias=True)
              (fc12): Linear(in_features=180, out_features=360, bias=True)
              (act): GELU()
              (fc2): Linear(in_features=360, out_features=180, bias=True)
              (drop): Dropout(p=0.0, inplace=False)
            )
          )
        )
      )
      (linear): Linear(in_features=180, out_features=180, bias=True)
    )
    (2): RTMSA(
      (residual_group): TMSAG(
        (blocks): ModuleList(
          (0): TMSA(
            (norm1): LayerNorm((180,), eps=1e-05, elementwise_affine=True)
            (attn): WindowAttention(
              (qkv_self): Linear(in_features=180, out_features=540, bias=True)
              (proj): Linear(in_features=180, out_features=180, bias=True)
              (softmax): Softmax(dim=-1)
            )
            (drop_path): DropPath()
            (norm2): LayerNorm((180,), eps=1e-05, elementwise_affine=True)
            (mlp): Mlp_GEGLU(
              (fc11): Linear(in_features=180, out_features=360, bias=True)
              (fc12): Linear(in_features=180, out_features=360, bias=True)
              (act): GELU()
              (fc2): Linear(in_features=360, out_features=180, bias=True)
              (drop): Dropout(p=0.0, inplace=False)
            )
          )
          (1): TMSA(
            (norm1): LayerNorm((180,), eps=1e-05, elementwise_affine=True)
            (attn): WindowAttention(
              (qkv_self): Linear(in_features=180, out_features=540, bias=True)
              (proj): Linear(in_features=180, out_features=180, bias=True)
              (softmax): Softmax(dim=-1)
            )
            (drop_path): DropPath()
            (norm2): LayerNorm((180,), eps=1e-05, elementwise_affine=True)
            (mlp): Mlp_GEGLU(
              (fc11): Linear(in_features=180, out_features=360, bias=True)
              (fc12): Linear(in_features=180, out_features=360, bias=True)
              (act): GELU()
              (fc2): Linear(in_features=360, out_features=180, bias=True)
              (drop): Dropout(p=0.0, inplace=False)
            )
          )
          (2): TMSA(
            (norm1): LayerNorm((180,), eps=1e-05, elementwise_affine=True)
            (attn): WindowAttention(
              (qkv_self): Linear(in_features=180, out_features=540, bias=True)
              (proj): Linear(in_features=180, out_features=180, bias=True)
              (softmax): Softmax(dim=-1)
            )
            (drop_path): DropPath()
            (norm2): LayerNorm((180,), eps=1e-05, elementwise_affine=True)
            (mlp): Mlp_GEGLU(
              (fc11): Linear(in_features=180, out_features=360, bias=True)
              (fc12): Linear(in_features=180, out_features=360, bias=True)
              (act): GELU()
              (fc2): Linear(in_features=360, out_features=180, bias=True)
              (drop): Dropout(p=0.0, inplace=False)
            )
          )
          (3): TMSA(
            (norm1): LayerNorm((180,), eps=1e-05, elementwise_affine=True)
            (attn): WindowAttention(
              (qkv_self): Linear(in_features=180, out_features=540, bias=True)
              (proj): Linear(in_features=180, out_features=180, bias=True)
              (softmax): Softmax(dim=-1)
            )
            (drop_path): DropPath()
            (norm2): LayerNorm((180,), eps=1e-05, elementwise_affine=True)
            (mlp): Mlp_GEGLU(
              (fc11): Linear(in_features=180, out_features=360, bias=True)
              (fc12): Linear(in_features=180, out_features=360, bias=True)
              (act): GELU()
              (fc2): Linear(in_features=360, out_features=180, bias=True)
              (drop): Dropout(p=0.0, inplace=False)
            )
          )
        )
      )
      (linear): Linear(in_features=180, out_features=180, bias=True)
    )
    (3): RTMSA(
      (residual_group): TMSAG(
        (blocks): ModuleList(
          (0): TMSA(
            (norm1): LayerNorm((180,), eps=1e-05, elementwise_affine=True)
            (attn): WindowAttention(
              (qkv_self): Linear(in_features=180, out_features=540, bias=True)
              (proj): Linear(in_features=180, out_features=180, bias=True)
              (softmax): Softmax(dim=-1)
            )
            (drop_path): DropPath()
            (norm2): LayerNorm((180,), eps=1e-05, elementwise_affine=True)
            (mlp): Mlp_GEGLU(
              (fc11): Linear(in_features=180, out_features=360, bias=True)
              (fc12): Linear(in_features=180, out_features=360, bias=True)
              (act): GELU()
              (fc2): Linear(in_features=360, out_features=180, bias=True)
              (drop): Dropout(p=0.0, inplace=False)
            )
          )
          (1): TMSA(
            (norm1): LayerNorm((180,), eps=1e-05, elementwise_affine=True)
            (attn): WindowAttention(
              (qkv_self): Linear(in_features=180, out_features=540, bias=True)
              (proj): Linear(in_features=180, out_features=180, bias=True)
              (softmax): Softmax(dim=-1)
            )
            (drop_path): DropPath()
            (norm2): LayerNorm((180,), eps=1e-05, elementwise_affine=True)
            (mlp): Mlp_GEGLU(
              (fc11): Linear(in_features=180, out_features=360, bias=True)
              (fc12): Linear(in_features=180, out_features=360, bias=True)
              (act): GELU()
              (fc2): Linear(in_features=360, out_features=180, bias=True)
              (drop): Dropout(p=0.0, inplace=False)
            )
          )
          (2): TMSA(
            (norm1): LayerNorm((180,), eps=1e-05, elementwise_affine=True)
            (attn): WindowAttention(
              (qkv_self): Linear(in_features=180, out_features=540, bias=True)
              (proj): Linear(in_features=180, out_features=180, bias=True)
              (softmax): Softmax(dim=-1)
            )
            (drop_path): DropPath()
            (norm2): LayerNorm((180,), eps=1e-05, elementwise_affine=True)
            (mlp): Mlp_GEGLU(
              (fc11): Linear(in_features=180, out_features=360, bias=True)
              (fc12): Linear(in_features=180, out_features=360, bias=True)
              (act): GELU()
              (fc2): Linear(in_features=360, out_features=180, bias=True)
              (drop): Dropout(p=0.0, inplace=False)
            )
          )
          (3): TMSA(
            (norm1): LayerNorm((180,), eps=1e-05, elementwise_affine=True)
            (attn): WindowAttention(
              (qkv_self): Linear(in_features=180, out_features=540, bias=True)
              (proj): Linear(in_features=180, out_features=180, bias=True)
              (softmax): Softmax(dim=-1)
            )
            (drop_path): DropPath()
            (norm2): LayerNorm((180,), eps=1e-05, elementwise_affine=True)
            (mlp): Mlp_GEGLU(
              (fc11): Linear(in_features=180, out_features=360, bias=True)
              (fc12): Linear(in_features=180, out_features=360, bias=True)
              (act): GELU()
              (fc2): Linear(in_features=360, out_features=180, bias=True)
              (drop): Dropout(p=0.0, inplace=False)
            )
          )
        )
      )
      (linear): Linear(in_features=180, out_features=180, bias=True)
    )
    (4): RTMSA(
      (residual_group): TMSAG(
        (blocks): ModuleList(
          (0): TMSA(
            (norm1): LayerNorm((180,), eps=1e-05, elementwise_affine=True)
            (attn): WindowAttention(
              (qkv_self): Linear(in_features=180, out_features=540, bias=True)
              (proj): Linear(in_features=180, out_features=180, bias=True)
              (softmax): Softmax(dim=-1)
            )
            (drop_path): DropPath()
            (norm2): LayerNorm((180,), eps=1e-05, elementwise_affine=True)
            (mlp): Mlp_GEGLU(
              (fc11): Linear(in_features=180, out_features=360, bias=True)
              (fc12): Linear(in_features=180, out_features=360, bias=True)
              (act): GELU()
              (fc2): Linear(in_features=360, out_features=180, bias=True)
              (drop): Dropout(p=0.0, inplace=False)
            )
          )
          (1): TMSA(
            (norm1): LayerNorm((180,), eps=1e-05, elementwise_affine=True)
            (attn): WindowAttention(
              (qkv_self): Linear(in_features=180, out_features=540, bias=True)
              (proj): Linear(in_features=180, out_features=180, bias=True)
              (softmax): Softmax(dim=-1)
            )
            (drop_path): DropPath()
            (norm2): LayerNorm((180,), eps=1e-05, elementwise_affine=True)
            (mlp): Mlp_GEGLU(
              (fc11): Linear(in_features=180, out_features=360, bias=True)
              (fc12): Linear(in_features=180, out_features=360, bias=True)
              (act): GELU()
              (fc2): Linear(in_features=360, out_features=180, bias=True)
              (drop): Dropout(p=0.0, inplace=False)
            )
          )
          (2): TMSA(
            (norm1): LayerNorm((180,), eps=1e-05, elementwise_affine=True)
            (attn): WindowAttention(
              (qkv_self): Linear(in_features=180, out_features=540, bias=True)
              (proj): Linear(in_features=180, out_features=180, bias=True)
              (softmax): Softmax(dim=-1)
            )
            (drop_path): DropPath()
            (norm2): LayerNorm((180,), eps=1e-05, elementwise_affine=True)
            (mlp): Mlp_GEGLU(
              (fc11): Linear(in_features=180, out_features=360, bias=True)
              (fc12): Linear(in_features=180, out_features=360, bias=True)
              (act): GELU()
              (fc2): Linear(in_features=360, out_features=180, bias=True)
              (drop): Dropout(p=0.0, inplace=False)
            )
          )
          (3): TMSA(
            (norm1): LayerNorm((180,), eps=1e-05, elementwise_affine=True)
            (attn): WindowAttention(
              (qkv_self): Linear(in_features=180, out_features=540, bias=True)
              (proj): Linear(in_features=180, out_features=180, bias=True)
              (softmax): Softmax(dim=-1)
            )
            (drop_path): DropPath()
            (norm2): LayerNorm((180,), eps=1e-05, elementwise_affine=True)
            (mlp): Mlp_GEGLU(
              (fc11): Linear(in_features=180, out_features=360, bias=True)
              (fc12): Linear(in_features=180, out_features=360, bias=True)
              (act): GELU()
              (fc2): Linear(in_features=360, out_features=180, bias=True)
              (drop): Dropout(p=0.0, inplace=False)
            )
          )
        )
      )
      (linear): Linear(in_features=180, out_features=180, bias=True)
    )
    (5): RTMSA(
      (residual_group): TMSAG(
        (blocks): ModuleList(
          (0): TMSA(
            (norm1): LayerNorm((180,), eps=1e-05, elementwise_affine=True)
            (attn): WindowAttention(
              (qkv_self): Linear(in_features=180, out_features=540, bias=True)
              (proj): Linear(in_features=180, out_features=180, bias=True)
              (softmax): Softmax(dim=-1)
            )
            (drop_path): DropPath()
            (norm2): LayerNorm((180,), eps=1e-05, elementwise_affine=True)
            (mlp): Mlp_GEGLU(
              (fc11): Linear(in_features=180, out_features=360, bias=True)
              (fc12): Linear(in_features=180, out_features=360, bias=True)
              (act): GELU()
              (fc2): Linear(in_features=360, out_features=180, bias=True)
              (drop): Dropout(p=0.0, inplace=False)
            )
          )
          (1): TMSA(
            (norm1): LayerNorm((180,), eps=1e-05, elementwise_affine=True)
            (attn): WindowAttention(
              (qkv_self): Linear(in_features=180, out_features=540, bias=True)
              (proj): Linear(in_features=180, out_features=180, bias=True)
              (softmax): Softmax(dim=-1)
            )
            (drop_path): DropPath()
            (norm2): LayerNorm((180,), eps=1e-05, elementwise_affine=True)
            (mlp): Mlp_GEGLU(
              (fc11): Linear(in_features=180, out_features=360, bias=True)
              (fc12): Linear(in_features=180, out_features=360, bias=True)
              (act): GELU()
              (fc2): Linear(in_features=360, out_features=180, bias=True)
              (drop): Dropout(p=0.0, inplace=False)
            )
          )
          (2): TMSA(
            (norm1): LayerNorm((180,), eps=1e-05, elementwise_affine=True)
            (attn): WindowAttention(
              (qkv_self): Linear(in_features=180, out_features=540, bias=True)
              (proj): Linear(in_features=180, out_features=180, bias=True)
              (softmax): Softmax(dim=-1)
            )
            (drop_path): DropPath()
            (norm2): LayerNorm((180,), eps=1e-05, elementwise_affine=True)
            (mlp): Mlp_GEGLU(
              (fc11): Linear(in_features=180, out_features=360, bias=True)
              (fc12): Linear(in_features=180, out_features=360, bias=True)
              (act): GELU()
              (fc2): Linear(in_features=360, out_features=180, bias=True)
              (drop): Dropout(p=0.0, inplace=False)
            )
          )
          (3): TMSA(
            (norm1): LayerNorm((180,), eps=1e-05, elementwise_affine=True)
            (attn): WindowAttention(
              (qkv_self): Linear(in_features=180, out_features=540, bias=True)
              (proj): Linear(in_features=180, out_features=180, bias=True)
              (softmax): Softmax(dim=-1)
            )
            (drop_path): DropPath()
            (norm2): LayerNorm((180,), eps=1e-05, elementwise_affine=True)
            (mlp): Mlp_GEGLU(
              (fc11): Linear(in_features=180, out_features=360, bias=True)
              (fc12): Linear(in_features=180, out_features=360, bias=True)
              (act): GELU()
              (fc2): Linear(in_features=360, out_features=180, bias=True)
              (drop): Dropout(p=0.0, inplace=False)
            )
          )
        )
      )
      (linear): Linear(in_features=180, out_features=180, bias=True)
    )
    (6): RTMSA(
      (residual_group): TMSAG(
        (blocks): ModuleList(
          (0): TMSA(
            (norm1): LayerNorm((180,), eps=1e-05, elementwise_affine=True)
            (attn): WindowAttention(
              (qkv_self): Linear(in_features=180, out_features=540, bias=True)
              (proj): Linear(in_features=180, out_features=180, bias=True)
              (softmax): Softmax(dim=-1)
            )
            (drop_path): DropPath()
            (norm2): LayerNorm((180,), eps=1e-05, elementwise_affine=True)
            (mlp): Mlp_GEGLU(
              (fc11): Linear(in_features=180, out_features=360, bias=True)
              (fc12): Linear(in_features=180, out_features=360, bias=True)
              (act): GELU()
              (fc2): Linear(in_features=360, out_features=180, bias=True)
              (drop): Dropout(p=0.0, inplace=False)
            )
          )
          (1): TMSA(
            (norm1): LayerNorm((180,), eps=1e-05, elementwise_affine=True)
            (attn): WindowAttention(
              (qkv_self): Linear(in_features=180, out_features=540, bias=True)
              (proj): Linear(in_features=180, out_features=180, bias=True)
              (softmax): Softmax(dim=-1)
            )
            (drop_path): DropPath()
            (norm2): LayerNorm((180,), eps=1e-05, elementwise_affine=True)
            (mlp): Mlp_GEGLU(
              (fc11): Linear(in_features=180, out_features=360, bias=True)
              (fc12): Linear(in_features=180, out_features=360, bias=True)
              (act): GELU()
              (fc2): Linear(in_features=360, out_features=180, bias=True)
              (drop): Dropout(p=0.0, inplace=False)
            )
          )
          (2): TMSA(
            (norm1): LayerNorm((180,), eps=1e-05, elementwise_affine=True)
            (attn): WindowAttention(
              (qkv_self): Linear(in_features=180, out_features=540, bias=True)
              (proj): Linear(in_features=180, out_features=180, bias=True)
              (softmax): Softmax(dim=-1)
            )
            (drop_path): DropPath()
            (norm2): LayerNorm((180,), eps=1e-05, elementwise_affine=True)
            (mlp): Mlp_GEGLU(
              (fc11): Linear(in_features=180, out_features=360, bias=True)
              (fc12): Linear(in_features=180, out_features=360, bias=True)
              (act): GELU()
              (fc2): Linear(in_features=360, out_features=180, bias=True)
              (drop): Dropout(p=0.0, inplace=False)
            )
          )
          (3): TMSA(
            (norm1): LayerNorm((180,), eps=1e-05, elementwise_affine=True)
            (attn): WindowAttention(
              (qkv_self): Linear(in_features=180, out_features=540, bias=True)
              (proj): Linear(in_features=180, out_features=180, bias=True)
              (softmax): Softmax(dim=-1)
            )
            (drop_path): DropPath()
            (norm2): LayerNorm((180,), eps=1e-05, elementwise_affine=True)
            (mlp): Mlp_GEGLU(
              (fc11): Linear(in_features=180, out_features=360, bias=True)
              (fc12): Linear(in_features=180, out_features=360, bias=True)
              (act): GELU()
              (fc2): Linear(in_features=360, out_features=180, bias=True)
              (drop): Dropout(p=0.0, inplace=False)
            )
          )
        )
      )
      (linear): Linear(in_features=180, out_features=180, bias=True)
    )
  )
  (norm): LayerNorm((180,), eps=1e-05, elementwise_affine=True)
  (conv_after_body): Linear(in_features=180, out_features=120, bias=True)
  (conv_before_upsample): Sequential(
    (0): Conv3d(120, 64, kernel_size=(1, 3, 3), stride=(1, 1, 1), padding=(0, 1, 1))
    (1): LeakyReLU(negative_slope=0.01, inplace=True)
  )
  (upsample): Upsample(
    (0): Conv3d(64, 256, kernel_size=(1, 3, 3), stride=(1, 1, 1), padding=(0, 1, 1))
    (1): Transpose_Dim12()
    (2): PixelShuffle(upscale_factor=2)
    (3): Transpose_Dim12()
    (4): LeakyReLU(negative_slope=0.1, inplace=True)
    (5): Conv3d(64, 256, kernel_size=(1, 3, 3), stride=(1, 1, 1), padding=(0, 1, 1))
    (6): Transpose_Dim12()
    (7): PixelShuffle(upscale_factor=2)
    (8): Transpose_Dim12()
    (9): LeakyReLU(negative_slope=0.1, inplace=True)
    (10): Conv3d(64, 64, kernel_size=(1, 3, 3), stride=(1, 1, 1), padding=(0, 1, 1))
  )
  (conv_last): Conv3d(64, 3, kernel_size=(1, 3, 3), stride=(1, 1, 1), padding=(0, 1, 1))
)

22-03-11 09:54:57.779 : 
 |  mean  |  min   |  max   |  std   || shape               
 |  0.000 | -0.064 |  0.064 |  0.037 | torch.Size([120, 27, 1, 3, 3]) || conv_first.weight
 | -0.005 | -0.063 |  0.062 |  0.037 | torch.Size([120]) || conv_first.bias
 |  0.449 |  0.406 |  0.485 |  0.040 | torch.Size([1, 3, 1, 1]) || spynet.mean
…
